…
    (out): Linear(in_features=300, out_features=2, bias=True)
  )
)
==========
==================================================================================================================================================================
Layer (type (var_name):depth-idx)                  Input Shape      Output Shape     Param #          Param %          Kernel Shape     Mult-Adds        Trainable
==================================================================================================================================================================
LoopModel (LoopModel)                              [200, 2, 4, 3000] [200, 2]         --                    --          --               --               True
+ CNN (data_extractor): 1-1                        [200, 4, 6000]   [200, 300]       --                    --          --               --               True
|    + CNNLayer (conv1): 2-1                       [200, 4, 6000]   [200, 200, 1498] --                    --          --               --               True
|    |    + Conv1d (conv): 3-1                     [200, 4, 6000]   [200, 200, 5993] 6,600              0.91%          [8]              7,910,760,000    True
|    |    + LeakyReLU (activite_func): 3-2         [200, 200, 5993] [200, 200, 5993] --                    --          --               --               --
|    |    + Dropout (dropout): 3-3                 [200, 200, 5993] [200, 200, 5993] --                    --          --               --               --
|    |    + MaxPool1d (pool): 3-4                  [200, 200, 5993] [200, 200, 1498] --                    --          4                --               --
|    + CNNLayer (conv2): 2-2                       [200, 200, 1498] [200, 200, 372]  --                    --          --               --               True
|    |    + Conv1d (conv): 3-5                     [200, 200, 1498] [200, 200, 1491] 320,200           43.97%          [8]              95,483,640,000   True
|    |    + LeakyReLU (activite_func): 3-6         [200, 200, 1491] [200, 200, 1491] --                    --          --               --               --
|    |    + Dropout (dropout): 3-7                 [200, 200, 1491] [200, 200, 1491] --                    --          --               --               --
|    |    + MaxPool1d (pool): 3-8                  [200, 200, 1491] [200, 200, 372]  --                    --          4                --               --
|    + Sequential (fc_f_agg): 2-3                  [200, 200, 372]  [200, 200, 186]  --                    --          --               --               True
|    |    + Linear (0): 3-9                        [200, 200, 372]  [200, 200, 186]  69,378             9.53%          --               13,875,600       True
|    |    + LeakyReLU (1): 3-10                    [200, 200, 186]  [200, 200, 186]  --                    --          --               --               --
|    + Sequential (fc_ch): 2-4                     [200, 200, 186]  [200, 200, 1]    --                    --          --               --               True
|    |    + Linear (0): 3-11                       [200, 200, 186]  [200, 200, 1]    187                0.03%          --               37,400           True
|    |    + LeakyReLU (1): 3-12                    [200, 200, 1]    [200, 200, 1]    --                    --          --               --               --
|    + Sequential (fc_out): 2-5                    [200, 200]       [200, 300]       --                    --          --               --               True
|    |    + Linear (0): 3-13                       [200, 200]       [200, 300]       60,300             8.28%          --               12,060,000       True
|    |    + LeakyReLU (1): 3-14                    [200, 300]       [200, 300]       --                    --          --               --               --
+ FeedForward (classifier): 1-2                    [200, 300]       [200, 2]         --                    --          --               --               True
|    + Sequential (hidden_net): 2-6                [200, 300]       [200, 300]       --                    --          --               --               True
|    |    + Linear (hidden_0): 3-15                [200, 300]       [200, 300]       90,300            12.40%          --               18,060,000       True
|    |    + LeakyReLU (activite_func_0): 3-16      [200, 300]       [200, 300]       --                    --          --               --               --
|    |    + Dropout (dropout_0): 3-17              [200, 300]       [200, 300]       --                    --          --               --               --
|    |    + Linear (hidden_1): 3-18                [200, 300]       [200, 300]       90,300            12.40%          --               18,060,000       True
|    |    + LeakyReLU (activite_func_1): 3-19      [200, 300]       [200, 300]       --                    --          --               --               --
|    |    + Dropout (dropout_1): 3-20              [200, 300]       [200, 300]       --                    --          --               --               --
|    |    + Linear (hidden_2): 3-21                [200, 300]       [200, 300]       90,300            12.40%          --               18,060,000       True
|    |    + LeakyReLU (activite_func_2): 3-22      [200, 300]       [200, 300]       --                    --          --               --               --
|    |    + Dropout (dropout_2): 3-23              [200, 300]       [200, 300]       --                    --          --               --               --
|    + Linear (out): 2-7                           [200, 300]       [200, 2]         602                0.08%          --               120,400          True
==================================================================================================================================================================
Total params: 728,167
Trainable params: 728,167
Non-trainable params: 0
Total mult-adds (G): 103.47
==================================================================================================================================================================
…
