…
=================================================================================================================================================================================
Layer (type (var_name):depth-idx)                                 Input Shape      Output Shape     Param #          Param %          Kernel Shape     Mult-Adds        Trainable
=================================================================================================================================================================================
LoopModel (LoopModel)                                             [200, 2, 4, 3000] [200, 2]         --                    --          --               --               True
+ MCIENet (data_extractor): 1-1                                   [200, 4, 6000]   [200, 100]       --                    --          --               --               True
|    + InceptionLayer (Inception1): 2-1                           [200, 4, 6000]   [200, 400, 1500] --                    --          --               --               True
|    |    + ModuleList (info_ext_branchs): 3-1                    --               --               641,600           40.53%          --               --               True
|    |    + MaxPool1d (dim_reduction_pool): 3-2                   [200, 400, 6000] [200, 400, 1500] --                    --          4                --               --
|    + InceptionLayer (Inception2): 2-2                           [200, 400, 1500] [200, 400, 375]  --                    --          --               --               True
|    |    + ModuleList (info_ext_branchs): 3-3                    --               --               800,000           50.53%          --               --               True
|    |    + MaxPool1d (dim_reduction_pool): 3-4                   [200, 400, 1500] [200, 400, 375]  --                    --          4                --               --
|    + Sequential (agg): 2-3                                      [200, 400, 375]  [200, 400, 188]  --                    --          --               --               True
|    |    + Linear (0): 3-5                                       [200, 400, 375]  [200, 400, 188]  70,688             4.47%          --               14,137,600       True
|    |    + LeakyReLU (1): 3-6                                    [200, 400, 188]  [200, 400, 188]  --                    --          --               --               --
|    + Sequential (fc_ch): 2-4                                    [200, 400, 188]  [200, 400, 1]    --                    --          --               --               True
|    |    + Linear (0): 3-7                                       [200, 400, 188]  [200, 400, 1]    189                0.01%          --               37,800           True
|    |    + LeakyReLU (1): 3-8                                    [200, 400, 1]    [200, 400, 1]    --                    --          --               --               --
|    + Sequential (fc_out): 2-5                                   [200, 400]       [200, 100]       --                    --          --               --               True
|    |    + Linear (0): 3-9                                       [200, 400]       [200, 100]       40,100             2.53%          --               8,020,000        True
|    |    + LeakyReLU (1): 3-10                                   [200, 100]       [200, 100]       --                    --          --               --               --
+ FeedForward (classifier): 1-2                                   [200, 100]       [200, 2]         --                    --          --               --               True
|    + Sequential (hidden_net): 2-6                               [200, 100]       [200, 100]       --                    --          --               --               True
|    |    + Linear (hidden_0): 3-11                               [200, 100]       [200, 100]       10,100             0.64%          --               2,020,000        True
|    |    + LeakyReLU (activite_func_0): 3-12                     [200, 100]       [200, 100]       --                    --          --               --               --
|    |    + Dropout (dropout_0): 3-13                             [200, 100]       [200, 100]       --                    --          --               --               --
|    |    + Linear (hidden_1): 3-14                               [200, 100]       [200, 100]       10,100             0.64%          --               2,020,000        True
|    |    + LeakyReLU (activite_func_1): 3-15                     [200, 100]       [200, 100]       --                    --          --               --               --
|    |    + Dropout (dropout_1): 3-16                             [200, 100]       [200, 100]       --                    --          --               --               --
|    |    + Linear (hidden_2): 3-17                               [200, 100]       [200, 100]       10,100             0.64%          --               2,020,000        True
|    |    + LeakyReLU (activite_func_2): 3-18                     [200, 100]       [200, 100]       --                    --          --               --               --
|    |    + Dropout (dropout_2): 3-19                             [200, 100]       [200, 100]       --                    --          --               --               --
|    + Linear (out): 2-7                                          [200, 100]       [200, 2]         202                0.01%          --               40,400           True
=================================================================================================================================================================================
Total params: 1,583,079
Trainable params: 1,583,079
Non-trainable params: 0
Total mult-adds (Units.TERABYTES): 1.01
=================================================================================================================================================================================
…
