…
    (out): Linear(in_features=300, out_features=2, bias=True)
  )
)
==========
==================================================================================================================================================================
Layer (type (var_name):depth-idx)                  Input Shape      Output Shape     Param #          Param %          Kernel Shape     Mult-Adds        Trainable
==================================================================================================================================================================
LoopModel (LoopModel)                              [200, 2, 4, 1000] [200, 2]         --                    --          --               --               True
+ CNN (data_extractor): 1-1                        [200, 4, 2000]   [200, 300]       --                    --          --               --               True
|    + CNNLayer (conv1): 2-1                       [200, 4, 2000]   [200, 100, 498]  --                    --          --               --               True
|    |    + Conv1d (conv): 3-1                     [200, 4, 2000]   [200, 100, 1993] 3,300              1.09%          [8]              1,315,380,000    True
|    |    + LeakyReLU (activite_func): 3-2         [200, 100, 1993] [200, 100, 1993] --                    --          --               --               --
|    |    + Dropout (dropout): 3-3                 [200, 100, 1993] [200, 100, 1993] --                    --          --               --               --
|    |    + MaxPool1d (pool): 3-4                  [200, 100, 1993] [200, 100, 498]  --                    --          4                --               --
|    + CNNLayer (conv2): 2-2                       [200, 100, 498]  [200, 100, 122]  --                    --          --               --               True
|    |    + Conv1d (conv): 3-5                     [200, 100, 498]  [200, 100, 491]  80,100            26.48%          [8]              7,865,820,000    True
|    |    + LeakyReLU (activite_func): 3-6         [200, 100, 491]  [200, 100, 491]  --                    --          --               --               --
|    |    + Dropout (dropout): 3-7                 [200, 100, 491]  [200, 100, 491]  --                    --          --               --               --
|    |    + MaxPool1d (pool): 3-8                  [200, 100, 491]  [200, 100, 122]  --                    --          4                --               --
|    + Sequential (fc_f_agg): 2-3                  [200, 100, 122]  [200, 100, 61]   --                    --          --               --               True
|    |    + Linear (0): 3-9                        [200, 100, 122]  [200, 100, 61]   7,503              2.48%          --               1,500,600        True
|    |    + LeakyReLU (1): 3-10                    [200, 100, 61]   [200, 100, 61]   --                    --          --               --               --
|    + Sequential (fc_ch): 2-4                     [200, 100, 61]   [200, 100, 1]    --                    --          --               --               True
|    |    + Linear (0): 3-11                       [200, 100, 61]   [200, 100, 1]    62                 0.02%          --               12,400           True
|    |    + LeakyReLU (1): 3-12                    [200, 100, 1]    [200, 100, 1]    --                    --          --               --               --
|    + Sequential (fc_out): 2-5                    [200, 100]       [200, 300]       --                    --          --               --               True
|    |    + Linear (0): 3-13                       [200, 100]       [200, 300]       30,300            10.02%          --               6,060,000        True
|    |    + LeakyReLU (1): 3-14                    [200, 300]       [200, 300]       --                    --          --               --               --
+ FeedForward (classifier): 1-2                    [200, 300]       [200, 2]         --                    --          --               --               True
|    + Sequential (hidden_net): 2-6                [200, 300]       [200, 300]       --                    --          --               --               True
|    |    + Linear (hidden_0): 3-15                [200, 300]       [200, 300]       90,300            29.85%          --               18,060,000       True
|    |    + LeakyReLU (activite_func_0): 3-16      [200, 300]       [200, 300]       --                    --          --               --               --
|    |    + Dropout (dropout_0): 3-17              [200, 300]       [200, 300]       --                    --          --               --               --
|    |    + Linear (hidden_1): 3-18                [200, 300]       [200, 300]       90,300            29.85%          --               18,060,000       True
|    |    + LeakyReLU (activite_func_1): 3-19      [200, 300]       [200, 300]       --                    --          --               --               --
|    |    + Dropout (dropout_1): 3-20              [200, 300]       [200, 300]       --                    --          --               --               --
|    + Linear (out): 2-7                           [200, 300]       [200, 2]         602                0.20%          --               120,400          True
==================================================================================================================================================================
Total params: 302,467
Trainable params: 302,467
Non-trainable params: 0
Total mult-adds (G): 9.23
==================================================================================================================================================================
…
