…
    (out): Linear(in_features=100, out_features=2, bias=True)
  )
)
==========
==================================================================================================================================================================
Layer (type (var_name):depth-idx)                  Input Shape      Output Shape     Param #          Param %          Kernel Shape     Mult-Adds        Trainable
==================================================================================================================================================================
LoopModel (LoopModel)                              [200, 2, 4, 3000] [200, 2]         --                    --          --               --               True
+ CNN (data_extractor): 1-1                        [200, 4, 6000]   [200, 100]       --                    --          --               --               True
|    + CNNLayer (conv1): 2-1                       [200, 4, 6000]   [200, 100, 1498] --                    --          --               --               True
|    |    + Conv1d (conv): 3-1                     [200, 4, 6000]   [200, 100, 5993] 3,300              1.70%          [8]              3,955,380,000    True
|    |    + LeakyReLU (activite_func): 3-2         [200, 100, 5993] [200, 100, 5993] --                    --          --               --               --
|    |    + Dropout (dropout): 3-3                 [200, 100, 5993] [200, 100, 5993] --                    --          --               --               --
|    |    + MaxPool1d (pool): 3-4                  [200, 100, 5993] [200, 100, 1498] --                    --          4                --               --
|    + CNNLayer (conv2): 2-2                       [200, 100, 1498] [200, 100, 372]  --                    --          --               --               True
|    |    + Conv1d (conv): 3-5                     [200, 100, 1498] [200, 100, 1491] 80,100            41.38%          [8]              23,885,820,000   True
|    |    + LeakyReLU (activite_func): 3-6         [200, 100, 1491] [200, 100, 1491] --                    --          --               --               --
|    |    + Dropout (dropout): 3-7                 [200, 100, 1491] [200, 100, 1491] --                    --          --               --               --
|    |    + MaxPool1d (pool): 3-8                  [200, 100, 1491] [200, 100, 372]  --                    --          4                --               --
|    + Sequential (fc_f_agg): 2-3                  [200, 100, 372]  [200, 100, 186]  --                    --          --               --               True
|    |    + Linear (0): 3-9                        [200, 100, 372]  [200, 100, 186]  69,378            35.84%          --               13,875,600       True
|    |    + LeakyReLU (1): 3-10                    [200, 100, 186]  [200, 100, 186]  --                    --          --               --               --
|    + Sequential (fc_ch): 2-4                     [200, 100, 186]  [200, 100, 1]    --                    --          --               --               True
|    |    + Linear (0): 3-11                       [200, 100, 186]  [200, 100, 1]    187                0.10%          --               37,400           True
|    |    + LeakyReLU (1): 3-12                    [200, 100, 1]    [200, 100, 1]    --                    --          --               --               --
|    + Sequential (fc_out): 2-5                    [200, 100]       [200, 100]       --                    --          --               --               True
|    |    + Linear (0): 3-13                       [200, 100]       [200, 100]       10,100             5.22%          --               2,020,000        True
|    |    + LeakyReLU (1): 3-14                    [200, 100]       [200, 100]       --                    --          --               --               --
+ FeedForward (classifier): 1-2                    [200, 100]       [200, 2]         --                    --          --               --               True
|    + Sequential (hidden_net): 2-6                [200, 100]       [200, 100]       --                    --          --               --               True
|    |    + Linear (hidden_0): 3-15                [200, 100]       [200, 100]       10,100             5.22%          --               2,020,000        True
|    |    + LeakyReLU (activite_func_0): 3-16      [200, 100]       [200, 100]       --                    --          --               --               --
|    |    + Linear (hidden_1): 3-17                [200, 100]       [200, 100]       10,100             5.22%          --               2,020,000        True
|    |    + LeakyReLU (activite_func_1): 3-18      [200, 100]       [200, 100]       --                    --          --               --               --
|    |    + Linear (hidden_2): 3-19                [200, 100]       [200, 100]       10,100             5.22%          --               2,020,000        True
|    |    + LeakyReLU (activite_func_2): 3-20      [200, 100]       [200, 100]       --                    --          --               --               --
|    + Linear (out): 2-7                           [200, 100]       [200, 2]         202                0.10%          --               40,400           True
==================================================================================================================================================================
Total params: 193,567
Trainable params: 193,567
Non-trainable params: 0
Total mult-adds (G): 27.86
==================================================================================================================================================================
…
