…
=================================================================================================================================================================================
Layer (type (var_name):depth-idx)                                 Input Shape      Output Shape     Param #          Param %          Kernel Shape     Mult-Adds        Trainable
=================================================================================================================================================================================
LoopModel (LoopModel)                                             [200, 2, 4, 1000] [200, 2]         --                    --          --               --               True
+ MCIENet (data_extractor): 1-1                                   [200, 4, 2000]   [200, 100]       --                    --          --               --               True
|    + InceptionLayer (Inception1): 2-1                           [200, 4, 2000]   [200, 300, 500]  --                    --          --               --               True
|    |    + ModuleList (info_ext_branchs): 3-1                    --               --               361,200           41.06%          --               --               True
|    |    + MaxPool1d (dim_reduction_pool): 3-2                   [200, 300, 2000] [200, 300, 500]  --                    --          4                --               --
|    + InceptionLayer (Inception2): 2-2                           [200, 300, 500]  [200, 300, 125]  --                    --          --               --               True
|    |    + ModuleList (info_ext_branchs): 3-3                    --               --               450,000           51.16%          --               --               True
|    |    + MaxPool1d (dim_reduction_pool): 3-4                   [200, 300, 500]  [200, 300, 125]  --                    --          4                --               --
|    + Sequential (agg): 2-3                                      [200, 300, 125]  [200, 300, 62]   --                    --          --               --               True
|    |    + Linear (0): 3-5                                       [200, 300, 125]  [200, 300, 62]   7,812              0.89%          --               1,562,400        True
|    |    + LeakyReLU (1): 3-6                                    [200, 300, 62]   [200, 300, 62]   --                    --          --               --               --
|    + Sequential (fc_ch): 2-4                                    [200, 300, 62]   [200, 300, 1]    --                    --          --               --               True
|    |    + Linear (0): 3-7                                       [200, 300, 62]   [200, 300, 1]    63                 0.01%          --               12,600           True
|    |    + LeakyReLU (1): 3-8                                    [200, 300, 1]    [200, 300, 1]    --                    --          --               --               --
|    + Sequential (fc_out): 2-5                                   [200, 300]       [200, 100]       --                    --          --               --               True
|    |    + Linear (0): 3-9                                       [200, 300]       [200, 100]       30,100             3.42%          --               6,020,000        True
|    |    + LeakyReLU (1): 3-10                                   [200, 100]       [200, 100]       --                    --          --               --               --
+ FeedForward (classifier): 1-2                                   [200, 100]       [200, 2]         --                    --          --               --               True
|    + Sequential (hidden_net): 2-6                               [200, 100]       [200, 100]       --                    --          --               --               True
|    |    + Linear (hidden_0): 3-11                               [200, 100]       [200, 100]       10,100             1.15%          --               2,020,000        True
|    |    + LeakyReLU (activite_func_0): 3-12                     [200, 100]       [200, 100]       --                    --          --               --               --
|    |    + Dropout (dropout_0): 3-13                             [200, 100]       [200, 100]       --                    --          --               --               --
|    |    + Linear (hidden_1): 3-14                               [200, 100]       [200, 100]       10,100             1.15%          --               2,020,000        True
|    |    + LeakyReLU (activite_func_1): 3-15                     [200, 100]       [200, 100]       --                    --          --               --               --
|    |    + Dropout (dropout_1): 3-16                             [200, 100]       [200, 100]       --                    --          --               --               --
|    |    + Linear (hidden_2): 3-17                               [200, 100]       [200, 100]       10,100             1.15%          --               2,020,000        True
|    |    + LeakyReLU (activite_func_2): 3-18                     [200, 100]       [200, 100]       --                    --          --               --               --
|    |    + Dropout (dropout_2): 3-19                             [200, 100]       [200, 100]       --                    --          --               --               --
|    + Linear (out): 2-7                                          [200, 100]       [200, 2]         202                0.02%          --               40,400           True
=================================================================================================================================================================================
Total params: 879,677
Trainable params: 879,677
Non-trainable params: 0
Total mult-adds (G): 189.49
=================================================================================================================================================================================
…
