…
======================================================================================================================================================================================
Layer (type (var_name):depth-idx)                                      Input Shape      Output Shape     Param #          Param %          Kernel Shape     Mult-Adds        Trainable
======================================================================================================================================================================================
LoopModel (LoopModel)                                                  [200, 2, 4, 3000] [200, 2]         --                    --          --               --               True
+ MCIENet (data_extractor): 1-1                                        [200, 4, 6000]   [200, 100]       --                    --          --               --               True
|    + InceptionLayer (Inception1): 2-1                                [200, 4, 6000]   [200, 200, 1500] --                    --          --               --               True
|    |    + BasicConv1d (info_retent_branch): 3-1                      [200, 4, 6000]   [200, 40, 6000]  160                0.08%          --               192,000,000      True
|    |    + ModuleList (info_ext_branchs): 3-2                         --               --               25,920            12.74%          --               --               True
|    |    + ModuleList (pool_proj_branchs): 3-3                        --               --               320                0.16%          --               --               True
|    |    + MaxPool1d (dim_reduction_pool): 3-4                        [200, 200, 6000] [200, 200, 1500] --                    --          4                --               --
|    + InceptionLayer (Inception2): 2-2                                [200, 200, 1500] [200, 200, 375]  --                    --          --               --               True
|    |    + BasicConv1d (info_retent_branch): 3-5                      [200, 200, 1500] [200, 40, 1500]  8,000              3.93%          --               2,400,000,000    True
|    |    + ModuleList (info_ext_branchs): 3-6                         --               --               41,600            20.45%          --               --               True
|    |    + ModuleList (pool_proj_branchs): 3-7                        --               --               16,000             7.87%          --               --               True
|    |    + MaxPool1d (dim_reduction_pool): 3-8                        [200, 200, 1500] [200, 200, 375]  --                    --          4                --               --
|    + Sequential (agg): 2-3                                           [200, 200, 375]  [200, 200, 188]  --                    --          --               --               True
|    |    + Linear (0): 3-9                                            [200, 200, 375]  [200, 200, 188]  70,688            34.76%          --               14,137,600       True
|    |    + LeakyReLU (1): 3-10                                        [200, 200, 188]  [200, 200, 188]  --                    --          --               --               --
|    + Sequential (fc_ch): 2-4                                         [200, 200, 188]  [200, 200, 1]    --                    --          --               --               True
|    |    + Linear (0): 3-11                                           [200, 200, 188]  [200, 200, 1]    189                0.09%          --               37,800           True
|    |    + LeakyReLU (1): 3-12                                        [200, 200, 1]    [200, 200, 1]    --                    --          --               --               --
|    + Sequential (fc_out): 2-5                                        [200, 200]       [200, 100]       --                    --          --               --               True
|    |    + Linear (0): 3-13                                           [200, 200]       [200, 100]       20,100             9.88%          --               4,020,000        True
|    |    + LeakyReLU (1): 3-14                                        [200, 100]       [200, 100]       --                    --          --               --               --
+ FeedForward (classifier): 1-2                                        [200, 100]       [200, 2]         --                    --          --               --               True
|    + Sequential (hidden_net): 2-6                                    [200, 100]       [200, 100]       --                    --          --               --               True
|    |    + Linear (hidden_0): 3-15                                    [200, 100]       [200, 100]       10,100             4.97%          --               2,020,000        True
|    |    + LeakyReLU (activite_func_0): 3-16                          [200, 100]       [200, 100]       --                    --          --               --               --
|    |    + Dropout (dropout_0): 3-17                                  [200, 100]       [200, 100]       --                    --          --               --               --
|    |    + Linear (hidden_1): 3-18                                    [200, 100]       [200, 100]       10,100             4.97%          --               2,020,000        True
|    |    + LeakyReLU (activite_func_1): 3-19                          [200, 100]       [200, 100]       --                    --          --               --               --
|    |    + Dropout (dropout_1): 3-20                                  [200, 100]       [200, 100]       --                    --          --               --               --
|    + Linear (out): 2-7                                               [200, 100]       [200, 2]         202                0.10%          --               40,400           True
======================================================================================================================================================================================
Total params: 203,379
Trainable params: 203,379
Non-trainable params: 0
Total mult-adds (G): 51.38
======================================================================================================================================================================================
…
