…
======================================================================================================================================================================================
Layer (type (var_name):depth-idx)                                      Input Shape      Output Shape     Param #          Param %          Kernel Shape     Mult-Adds        Trainable
======================================================================================================================================================================================
LoopModel (LoopModel)                                                  [200, 2, 4, 1000] [200, 2]         --                    --          --               --               True
+ MCIENet (data_extractor): 1-1                                        [200, 4, 2000]   [200, 200]       --                    --          --               --               True
|    + InceptionLayer (Inception1): 2-1                                [200, 4, 2000]   [200, 200, 500]  --                    --          --               --               True
|    |    + BasicConv1d (info_retent_branch): 3-1                      [200, 4, 2000]   [200, 40, 2000]  160                0.05%          --               64,000,000       True
|    |    + ModuleList (info_ext_branchs): 3-2                         --               --               25,920             8.60%          --               --               True
|    |    + ModuleList (pool_proj_branchs): 3-3                        --               --               320                0.11%          --               --               True
|    |    + MaxPool1d (dim_reduction_pool): 3-4                        [200, 200, 2000] [200, 200, 500]  --                    --          4                --               --
|    + InceptionLayer (Inception2): 2-2                                [200, 200, 500]  [200, 200, 125]  --                    --          --               --               True
|    |    + BasicConv1d (info_retent_branch): 3-5                      [200, 200, 500]  [200, 40, 500]   8,000              2.66%          --               800,000,000      True
|    |    + ModuleList (info_ext_branchs): 3-6                         --               --               41,600            13.81%          --               --               True
|    |    + ModuleList (pool_proj_branchs): 3-7                        --               --               16,000             5.31%          --               --               True
|    |    + MaxPool1d (dim_reduction_pool): 3-8                        [200, 200, 500]  [200, 200, 125]  --                    --          4                --               --
|    + Sequential (agg): 2-3                                           [200, 200, 125]  [200, 200, 62]   --                    --          --               --               True
|    |    + Linear (0): 3-9                                            [200, 200, 125]  [200, 200, 62]   7,812              2.59%          --               1,562,400        True
|    |    + LeakyReLU (1): 3-10                                        [200, 200, 62]   [200, 200, 62]   --                    --          --               --               --
|    + Sequential (fc_ch): 2-4                                         [200, 200, 62]   [200, 200, 1]    --                    --          --               --               True
|    |    + Linear (0): 3-11                                           [200, 200, 62]   [200, 200, 1]    63                 0.02%          --               12,600           True
|    |    + LeakyReLU (1): 3-12                                        [200, 200, 1]    [200, 200, 1]    --                    --          --               --               --
|    + Sequential (fc_out): 2-5                                        [200, 200]       [200, 200]       --                    --          --               --               True
|    |    + Linear (0): 3-13                                           [200, 200]       [200, 200]       40,200            13.34%          --               8,040,000        True
|    |    + LeakyReLU (1): 3-14                                        [200, 200]       [200, 200]       --                    --          --               --               --
+ FeedForward (classifier): 1-2                                        [200, 200]       [200, 2]         --                    --          --               --               True
|    + Sequential (hidden_net): 2-6                                    [200, 200]       [200, 200]       --                    --          --               --               True
|    |    + Linear (hidden_0): 3-15                                    [200, 200]       [200, 200]       40,200            13.34%          --               8,040,000        True
|    |    + LeakyReLU (activite_func_0): 3-16                          [200, 200]       [200, 200]       --                    --          --               --               --
|    |    + Dropout (dropout_0): 3-17                                  [200, 200]       [200, 200]       --                    --          --               --               --
|    |    + Linear (hidden_1): 3-18                                    [200, 200]       [200, 200]       40,200            13.34%          --               8,040,000        True
|    |    + LeakyReLU (activite_func_1): 3-19                          [200, 200]       [200, 200]       --                    --          --               --               --
|    |    + Dropout (dropout_1): 3-20                                  [200, 200]       [200, 200]       --                    --          --               --               --
|    |    + Linear (hidden_2): 3-21                                    [200, 200]       [200, 200]       40,200            13.34%          --               8,040,000        True
|    |    + LeakyReLU (activite_func_2): 3-22                          [200, 200]       [200, 200]       --                    --          --               --               --
|    |    + Dropout (dropout_2): 3-23                                  [200, 200]       [200, 200]       --                    --          --               --               --
|    |    + Linear (hidden_3): 3-24                                    [200, 200]       [200, 200]       40,200            13.34%          --               8,040,000        True
|    |    + LeakyReLU (activite_func_3): 3-25                          [200, 200]       [200, 200]       --                    --          --               --               --
|    |    + Dropout (dropout_3): 3-26                                  [200, 200]       [200, 200]       --                    --          --               --               --
|    + Linear (out): 2-7                                               [200, 200]       [200, 2]         402                0.13%          --               80,400           True
======================================================================================================================================================================================
Total params: 301,277
Trainable params: 301,277
Non-trainable params: 0
Total mult-adds (G): 17.16
======================================================================================================================================================================================
…
